ROS_Core/src/Labs/Lab5/models/model_example.pt (torch, 81493 bytes, 11 tensors)

0.weight f4 [16, 4]
00000000: d55f 663e 6424 a0be 7e93 a8be 7dbc 67be
00000010: f283 8e3e 3722 86bf fc8a f4be 6cd2 1b3f
00000020: 935f 4ebf c106 e33d 4a2f 1a3d 9c87 ee3d
00000030: d49e 0e3f 31c3 19bf 7c60 47bf 5c2b 23bf
00000040: 122f 073f 922e 94bf 3f28 d13e 9d0b 473f
00000050: 0d38 0abf b8a9 793b dbc5 ec3e a066 103f
00000060: f700 e3be 885e dc3e 182d 3d3e cb0e bbbd
00000070: ddf0 e9bd 4845 56bf aa34 b73d b842 60bf
00000080: eaea 123f c4b6 7d3f 3d13 5bbf a80e b23e
00000090: 4014 233c a0f0 193d 00cf d63b f806 a5bd
000000a0: e8fe ae3e 1bf2 98bc d076 293f 2149 423f
000000b0: 027e e3be 2937 95bf 16eb 123f 51ee ac3e
000000c0: 7cb1 eb3e 33d3 153f 5e88 253e 6dc4 f93d
000000d0: 6dac 23bf 5ee1 bf3f bd1a 36bf 79a5 aabe
000000e0: e626 893e 6ac6 80be 8b5e 01c0 3d47 863e
000000f0: e394 9e3d 41ac fb3e 65fa a63e 9420 1d3f
0.22497495 -0.31277764 -0.32925028 -0.22630496 0.2783504 -1.0479192 -0.47762287 0.60867953
-0.80614585 0.110852726 0.037642755 0.11646959 0.557111 -0.60063463 -0.778816 -0.63738036
0.528062 -1.1576712 0.40851018 0.77752095 -0.53991777 0.0038095545 0.46244702 0.56406593
-0.44336674 0.43040872 0.18474233 -0.09133681 -0.11422894 -0.83699465 0.08945592 -0.87601805
0.573897 0.99107003 -0.8557623 0.34776807 0.009953558 0.037582994 0.006555438 -0.0805797
0.34178853 -0.018670132 0.6619692 0.75892836 -0.44432074 -1.1657459 0.5738996 0.3377557
0.46033847 0.5852539 0.16165301 0.12195668 -0.63934976 1.4990652 -0.7113455 -0.3332937
0.2678749 -0.25151378 -2.0213954 0.26226225 0.07743242 0.49154857 0.3261291 0.61377835

0.bias f4 [16]
00000000: 7a42 d23e 33fb a53b 5508 5d3f 43eb ebbe
00000010: 8e87 a43e ff0d 063f 4890 233f 681c 083e
00000020: 71b9 38be 1049 21be 6690 623d 7896 ecbc
00000030: 4d8f 2a3e 4dc5 69be 9754 b9bd 07e8 a23e
0.41066343 0.0050653457 0.8634084 -0.46077928 0.3213467 0.52365106 0.6389203 0.13292086
-0.1803949 -0.15750527 0.05531349 -0.028880343 0.16656227 -0.2282917 -0.09049337 0.31817648

2.weight f4 [32, 16]
00000000: 1489 72be 0008 62bb c83c 613e f6d5 78be
00000010: 4985 193e 56bb 13be 64b5 7fbd 2955 82be
00000020: 40b0 643c 5408 d53d a33e d93d 65c9 bc3d
00000030: bb41 31be a029 50bc 4036 f4bb d31a 72be
00000040: 6e20 5b3d 74ec 603e d9e5 76be 8bfe f9bd
00000050: ba1a 09bd 7569 f13d 6231 7fbe c855 af3d
00000060: d147 6cbe 2c86 cebd b220 e3bd ecf4 fcbd
00000070: ab9d 1e3e d0c5 65be 5a34 0d3d c105 623c
00000080: e8a9 2ebe ba68 0b3d 144a 76bf 0654 43bd
00000090: b026 7c3e 78cf 36be 1c9b 48be 11e5 073d
000000a0: 18d2 723e 96b2 15be e1a0 063e 17f6 f2be
000000b0: 42a6 953e 28ea 1abf 6aa7 8e3e ebd6 593d
000000c0: 5df8 51be 2881 a03a 09d9 363e 81f2 f93c
000000d0: adbc 19bf 773e 4abe ac9d 91be 8992 c0bd
000000e0: 4111 ce3c 18dc 3d3e 3768 2dbe dadb 3b3e
000000f0: 89e9 62c0 7c78 393e c70d 2a3d fde1 cd3b
00000100: d110 863e c174 843f fdab 153f c922 8bbd
00000110: f5b3 bcbd b80f d1be 106f 683f 6680 0abe
00000120: ba50 603c 18cc da3d 14a1 cebe 4b6d 253f
00000130: 6d72 44be 1659 9ebe c2a1 1b3f 9835 f4bb
00000140: b52f 86be 29f6 b9be ee82 0dbe d415 9d3e
00000150: 38fb 3ebd 234c 623c dc8f 0f3f 7ce9 08bf
00000160: aea4 093f c830 8b3d 6f67 a4be f2ef 1cbd
00000170: cc08 423e 8980 22bc 85da edbd 980e b03c
00000180: 8959 37be b491 003f 2302 613f 2689 f63e
00000190: 784f c43e aef5 a93e af6a eabe 976d 10bf
000001a0: b509 51be 146c f9bd 7f33 44bd 267e a0be
000001b0: 40f8 0dbd 68b5 0fbf dc32 313e 2475 34be
000001c0: 22aa bdbc 228e f93d 6e39 b9be 0ad6 f9be
000001d0: 2971 7a3e 40f9 963e 76e6 5fbe 92d3 613f
000001e0: 9f68 103e 84e5 793e 0799 b73d db05 0d3e
000001f0: c0f3 d6bd c03e 1e3c cf07 17bf dbe2 c23d
00000200: 6830 8b3c 6bb1 dfbd 7e0a b33c 79ff ed3e
00000210: ca79 cb3d 60e8 07bf db52 fe3e 15c1 5fbe
00000220: b70f b53e 90c6 733e b166 55be 415a 013f
00000230: ea5f 6d3d 15a3 923e 3a4b 84be b811 80be
00000240: c8c8 5fbe a68c 6bbe bc19 e6bd beef 0a3e
00000250: 8c57 143e 4843 b33d 80af 22bc 90d1 6bbd
00000260: 3224 613e c8cb 2f3d 4c20 b4bd 000c 5bbc
00000270: ca16 35be 4c99 b5bd 8e43 38be 80fe fd3c
00000280: f47b b93d 9299 a8be 5f6e 1c3d 1382 1d3f
00000290: 8593 8a3e 48da 403f 254e fabe 8b2a 58be
000002a0: 6529 133e 8071 7ebb da63 bd3e 7ca4 21be
000002b0: 3632 ad3e c028 94bb a1f9 bebe b835 4abe
000002c0: 6291 903e 438f ffbd 8c86 d13f 07c6 efbe
000002d0: 92b5 433d 998d cf3d f1bc 3c3d 3155 67bf
000002e0: cc6c d7bd e0ec 20be 1fd9 3e3e 3a6c 08bf
000002f0: bc20 843e 280e 1fc0 3fbf 583d b35b 6c3e
00000300: 4ca7 41bd 2d03 403e 75e3 f6bd b700 78be
00000310: 4077 a83d 4508 633e e9ea 973e 89a6 43bd
00000320: 18de b23c b4dc 103e c087 d7bd 575c 88bd
00000330: c98c 523e 80ce 1fbb 0a89 e4bd ffff 413e
00000340: 80f1 7bbc 68d9 d7bd 8ca9 60be 2c13 28be
00000350: ce11 15be 6929 6e3e 5d71 03be 6914 1e3e
00000360: 3c88 3bbe ead8 263e 45c4 13bc f774 113d
00000370: 4f55 863d fc9e 4d3e a090 35bd d7a1 c8bd
00000380: 60df ecbd 814b 163e b0e4 d9bc e113 89be
00000390: 873e 88be 3872 f9bc a690 51be f538 6e3d
000003a0: f26e 893c 0cb4 763e 10a6 75be 4093 e9bc
000003b0: e6e9 123e 150d a2bc f4d6 5b3d a6dd 093e
000003c0: 7738 213e 00e5 e43d 98f9 523f b04a 693e
000003d0: d0ef 8cbc b7f1 0dbf 0dba afbe 7b53 5cbe
000003e0: f691 063f 40f2 b1bb eb43 bf3e 3f17 bd3e
000003f0: ebce e2bc a2ff 54be bd86 bbbb 49cc 7bbe
-0.23685104 -0.0034489632 0.21995842 -0.2430037 0.1499225 -0.14426932 -0.062428847 -0.25455597
0.013958037 0.10401979 0.1060765 0.092181005 -0.1731023 -0.012705237 -0.007452756 -0.23643045
0.053497724 0.219652 -0.24111117 -0.12206753 -0.033472754 0.117876925 -0.24921182 0.08561283
-0.23074271 -0.10084185 -0.110902205 -0.12351403 0.15489833 -0.2243874 0.034473754 0.013795317
-0.17057002 0.034035422 -0.96206784 -0.047687553 0.24624133 -0.1785258 -0.1959042 0.03317744
0.23712957 -0.14618906 0.13147308 -0.47453377 0.29228407 -0.60513544 0.27862102 0.053183477
-0.205049 0.0012245523 0.1785623 0.030511143 -0.6005352 -0.19750391 -0.28440607 -0.09402949
0.025154712 0.1854099 -0.16934286 0.18345585 -3.5455039 0.18112367 0.041517045 0.0062830434
0.26184705 1.034813 0.5846556 -0.06793744 -0.092140116 -0.40832305 0.9079447 -0.13525543
0.013691122 0.10683459 -0.40357268 0.6461989 -0.19184275 -0.30927342 0.607937 -0.007452678
-0.26208273 -0.36320618 -0.13819477 0.30680716 -0.0466263 0.013812098 0.56078887 -0.5348127
0.53766906 0.06796414 -0.32110164 -0.038314767 0.18948668 -0.0099183405 -0.11613945 0.021491334
-0.17905249 0.50222325 0.87893885 0.4815151 0.3834188 0.3319525 -0.45784518 -0.5641722
-0.20413859 -0.121788174 -0.047900673 -0.31346244 -0.034660578 -0.5613618 0.17304558 -0.1762281
-0.023152415 0.12185313 -0.36176628 -0.4879611 0.2445723 0.29487038 -0.21865258 0.88213456
0.1410241 0.2440396 0.089647345 0.13771765 -0.104957104 0.009658515 -0.5899629 0.095159255
0.016990855 -0.10922512 0.021855589 0.46483973 0.09935339 -0.5308895 0.4967259 -0.21850999
0.35363552 0.23806214 -0.20839955 0.5052834 0.0579528 0.28640047 -0.25838643 -0.25013518
-0.21853936 -0.23002872 -0.11235377 0.13568017 0.14486521 0.08753067 -0.009929538 -0.0575729
0.21986464 0.04291895 -0.08795223 -0.01336956 -0.17684475 -0.0886713 -0.1799452 0.031005144
0.09056845 -0.32929665 0.038191196 0.615266 0.27065673 0.7533307 -0.48887745 -0.21109979
0.1437126 -0.0038824975 0.36990243 -0.15785402 0.3382737 -0.0045214593 -0.37299827 -0.19747055
0.28235918 -0.12478497 1.6369185 -0.4683077 0.04778058 0.101344295 0.046078626 -0.90364367
-0.10518798 -0.1571536 0.18637513 -0.5329014 0.25806224 -2.485239 0.05291676 0.23081855
-0.047278687 0.18751211 -0.12055103 -0.24219023 0.0822587 0.22171123 0.2967141 -0.047766242
0.021834418 0.14146692 -0.10523939 -0.066582374 0.20561518 -0.0024384558 -0.111589506 0.18945311
-0.015377402 -0.10539514 -0.21939677 -0.16413563 -0.14557573 0.23257984 -0.12836213 0.15437473
-0.18313688 0.16293684 -0.009018962 0.035511937 0.0655924 0.20080179 -0.04432738 -0.097964935
-0.11566043 0.1467724 -0.026598305 -0.2677298 -0.26610205 -0.030449972 -0.20465335 0.058159787
0.016776536 0.2409212 -0.23989129 -0.028512597 0.14347038 -0.019781629 0.053671792 0.13463458
0.15744196 0.11176491 0.824121 0.22782397 -0.017204195 -0.5544695 -0.34321633 -0.2151622
0.5256647 -0.00543049 0.37356505 0.36931798 -0.027686557 -0.20800641 -0.005722849 -0.24589647

2.bias f4 [32]
00000000: bb67 7ebe bbf5 2dbe 0875 27be 0314 853c
00000010: ee1f 24bd 9b1c 203f 7db5 d93b f273 4d3e
00000020: 2681 463e 9230 60be 3cc0 a8be 4a4e 533e
00000030: 6349 8c3d 514e 1abe a3dc b63d 04ff 9ebe
00000040: a590 5abe a418 b53d 5397 f83c ddab 35bd
00000050: f642 0a3e 06e5 073e 8c1e 133e 4b72 b9bd
00000060: 7bce a8bd e572 5c3e 0558 a13e 050b 883d
00000070: 3ca8 96bd fc57 f0b9 6405 16be 8716 a03e
-0.24844258 -0.1698827 -0.16353238 0.016244894 -0.040069513 0.6254365 0.0066439495 0.20063761
0.19385204 -0.21893528 -0.32959163 0.20635334 0.06849935 -0.15068938 0.08928802 -0.31053936
-0.2134424 0.088425905 0.030345595 -0.044353355 0.13502106 0.1327096 0.14367121 -0.09055003
-0.08242508 0.21528204 0.31512466 0.06642727 -0.07356307 -0.0004584192 -0.14650494 0.31267187

4.weight f4 [64, 32]
00000000: 9472 153e 6efe 673d 5062 5dbd d207 cbbd
00000010: 82ff 1c3e dcf7 4abe 60c5 ac3d bc5e 083e
00000020: e61d 40be 4857 46bd 0ed1 89bc ecca dcbd
00000030: d5c5 96bc 8754 55bd ea14 e9bd 0a35 95bd
00000040: 69cb f3bd c5c3 f8bc f1d2 813e 608f 313d
00000050: 70c4 07bd 7816 ce3d 6ce6 c1bd 5a9c 6c3c
00000060: c347 a9be 537c 4abd c5c9 683e 3b8e ea3e
00000070: 2ba6 e6bd 6161 5ebd a270 a4bb e130 993d
00000080: 0ca7 dcbc d17c 273e 08be 1e3e 57aa acbd
00000090: 9ece 673e 9247 7abc 79e9 893e 0297 27bd
000000a0: 4515 2e3e 359a 803d e9aa 8bbe 7dd2 0b3d
000000b0: 48c6 553e ec31 973c 4f9c 0a3e 1ea4 abbe
000000c0: 9935 a2bd 6b86 87be 5d65 f1bc 032c c4c0
000000d0: 637b 61be 593b 793d 4517 05be fbf5 81bd
000000e0: f740 31bd b9b1 92be 3035 84bd 9cc7 ab3e
000000f0: 00d1 27bd 7d51 1c3d 819f e83d fe90 02bf
00000100: 1660 7b3d 2c89 e9bd 3a5e 70bd 066a 283d
00000110: 0677 cfbc 6ac9 a2bd 61a4 e63d d08a a43d
00000120: 30b5 24bd 70d9 283b 5af6 2abe 08a1 ea3d
00000130: 6ef1 19be cff7 33bc 0d85 2c3e bea6 1cbe
00000140: 151e 923c aa39 16be d20e 1dbe 63f2 053e
00000150: 98a7 8bbd 3c57 7fbd a6d6 023e c37e 12be
00000160: 3b27 833d f428 123d 367a 2c3e 9c1c acbd
00000170: 8d69 e93d c570 adbd 39e2 aabd fd2b d0bc
00000180: 905b ed3d 5523 f03d 622e 2c3e f59e bb3a
00000190: 0231 71bd f9fd 88bd d208 153e 0546 423d
000001a0: 1e73 2ebd 5e9f 1abe 62d6 063e e2a9 803e
000001b0: 5f91 bebd 1a8d 0ebe 7624 0bbe 6e0c 3d3e
000001c0: dd54 2bbc 1765 f9bd 18fa 513e c52c 31bf
000001d0: e566 54be ced4 0cbc ed7d 27be 8d2f 643e
000001e0: 29dd 44bf 45ae 18bf a478 debd 03f0 a4bd
000001f0: dba0 24be f19a c53c 0f5f 8d3c 8741 d3bd
00000200: 429a 313c 2383 93bd 20a8 a6bd 5f17 b0bd
00000210: 0857 95bd cd3d 8cbd 5cfb eb3c 99ec c1bc
00000220: 7431 8b3c b641 e4bb 4c06 8f3c 50a7 9bbd
00000230: 2b72 843c 6ce3 31bd 9d30 b53b 0849 2a3e
00000240: 2749 bbbd 9183 aabd 1261 85bd 1a30 253e
00000250: ff7c 1fbe b2f2 2abe 681b da3d f9b7 e73d
00000260: 503a 9cbc 2841 583d 6d42 febd 6ccf bebc
00000270: 6db4 073e 7624 f6bd 3c6d 123d f2da e0bd
00000280: 54e9 a7bc 349c e1bd 0278 c43d aaf2 b8bd
00000290: 6621 39bc f941 afbc 253a 2cbe 598f 193d
000002a0: c08e a8bb 04bf d1bd e285 3abe 5118 5cbc
000002b0: 5363 dcbd 6157 ecbd c552 47bd 58aa fb3d
000002c0: e74b ce3d da87 f4bd c2d2 fdbd 5f49 d5bb
000002d0: bcd2 043e 2258 dcbd 0dcc e83d bad8 d63d
000002e0: d90c 03be a664 0bbe 25e3 2abe 19d2 32be
000002f0: 9d8d 84bd 1bfa 263e 2fc1 1e3e 3639 233e
00000300: 8cd1 52be f679 f4bd ff07 923e 880d 72be
00000310: fa2b 453e 9717 a93b c9cb 9bbe a29b 8d3e
00000320: 056b 6abb 44d0 0e3e 22b0 8ebc 56ba cc3d
00000330: 500e 783d 885a dabc 4742 f73c 5151 363e
00000340: 5f17 c43d 5b24 083e 4ce8 74be 4a8a 95be
00000350: d90a cd3d a940 28be 840d 323b 59f0 b1bd
00000360: 27ec 13be b021 d7bc 130a 4dbe dca3 8bbd
00000370: 01d7 a03c e8af 7e3e 3edd 2ebf d0a3 dfbc
00000380: c603 2f3d 2972 21be d0c8 a6bd c247 52bf
00000390: 924e d1be c9ff 863e defe bb3e 530a dbbe
000003a0: c4b8 a9bd 8ca3 f33c 092f 393e aa4e 243e
000003b0: 233e c83d 0134 283e 4ca0 19be 13ae dfbd
000003c0: 3835 acbc 828b 223e b64c 1c3d ebc5 b4be
000003d0: d999 a2bc 52ba c23d ad8c b83d 6a1b 2e3d
000003e0: 4a8b 853e c856 183f 1fb8 16bd 127b 053e
000003f0: 8ce6 2f3d 168b c33e 31f6 5bbc c5a2 7a3d
0.1459449 0.056639127 -0.054048836 -0.09913601 0.15331843 -0.19821113 0.08436084 0.13317388
-0.18761405 -0.04842308 -0.016823318 -0.10780892 -0.01840488 -0.052082565 -0.11380942 -0.07285507
-0.11904032 -0.030366788 0.25356248 0.043349624 -0.03314632 0.10062879 -0.094677776 0.014441574
-0.33062562 -0.04943497 0.22733219 0.45811638 -0.11262163 -0.054292087 -0.0050183097 0.07480026
-0.026935123 0.16356207 0.15502179 -0.08430927 0.22637412 -0.015275853 0.26935938 -0.040915497
0.17000301 0.06279413 -0.27278832 0.034136284 0.2087642 0.018456422 0.1353619 -0.3352365
-0.07920379 -0.2646974 -0.02946728 -6.1303725 -0.22019725 0.060847614 -0.12997158 -0.06345745
-0.043274846 -0.28651217 -0.06455457 0.33550727 -0.040970802 0.03816365 0.11358548 -0.5100249
0.06137093 -0.114031166 -0.05868361 0.041116737 -0.02532531 -0.07948573 0.112618215 0.08034289
-0.040211856 0.0025764368 -0.16695538 0.114564955 -0.15033504 -0.010984375 0.1684763 -0.15297982
0.01783661 -0.14670435 -0.15337685 0.13080744 -0.06819075 -0.062339053 0.12777194 -0.14306168
0.06403967 0.035683587 0.16843495 -0.08403894 0.11397085 -0.08468775 -0.0834393 -0.0254116
0.1158973 0.11725489 0.16814569 0.0014314341 -0.058884628 -0.066890664 0.14554146 0.047430057
-0.042590253 -0.15099856 0.13167718 0.2512961 -0.09305071 -0.13921013 -0.13588127 0.18461773
-0.010457245 -0.121774845 0.2050556 -0.6920894 -0.20742376 -0.0085956585 -0.1635663 0.22283764
-0.76899964 -0.59640914 -0.10862854 -0.08053591 -0.16076986 0.024121733 0.017257242 -0.10315233
0.010840001 -0.07202747 -0.08137536 -0.08598208 -0.072919905 -0.06847725 0.02880638 -0.023672389
0.016991355 -0.006965841 0.017459057 -0.07600272 0.01616772 -0.043429777 0.005529477 0.16629422
-0.09144812 -0.083258756 -0.06512655 0.1613163 -0.15575026 -0.16694143 0.106497586 0.11314387
-0.019070774 0.052796513 -0.124150135 -0.023292266 0.1325242 -0.12018673 0.035748705 -0.109792605
-0.020497002 -0.110161215 0.09593202 -0.090306595 -0.011299467 -0.021393763 -0.16819055 0.037490223
-0.0051439703 -0.102415115 -0.18215135 -0.013433532 -0.10761132 -0.11540104 -0.04866292 0.1228835
0.10073071 -0.11939974 -0.123937145 -0.0065089907 0.12971014 -0.107589975 0.113670446 0.10490556
-0.1279787 -0.13612613 -0.16688211 -0.17462958 -0.06472323 0.16306345 0.15503381 0.15939793
-0.20587748 -0.11937325 0.28521726 -0.23637974 0.19255057 0.005160283 -0.30428913 0.276578
-0.0035769355 0.13946635 -0.017417971 0.09996478 0.060560524 -0.026654497 0.03018297 0.17804457
0.0957477 0.13295119 -0.23916739 -0.2920707 0.10011835 -0.16430916 0.00271687 -0.08688421
-0.14445554 -0.02626118 -0.20023374 -0.06818363 0.019633772 0.2487179 -0.6830634 -0.027299792
0.042728208 -0.15766205 -0.08143771 -0.82140744 -0.40880257 0.26367024 0.36717886 -0.42781314
-0.08287194 0.029741071 0.18084349 0.16045633 0.09777477 0.16426088 -0.15002555 -0.10921874
-0.02102147 0.1587353 0.038159095 -0.3530725 -0.01984875 0.09508194 0.09011207 0.042506613
0.26082832 0.5950742 -0.036796685 0.13035229 0.042944476 0.38192052 -0.013425396 0.061190385

4.bias f4 [64]
00000000: 174e 383d b1a0 02bc 40ff 38be c763 563d
00000010: 46e5 1ebe 0afd 54bc a8f8 01bd eb2f 2a3d
00000020: 3c96 1fbd 40ab 68bd 771a f33d 8e0c 143d
00000030: cf91 d4bd c2f1 20be c182 8e3e 88f4 babe
00000040: 9456 4ebd 3a42 29bd 803f 233e f684 22be
00000050: c48a a3bc 5453 f63d dd3b 733e de72 1dbe
00000060: c587 6fbd 7414 863d 04da e9bc d14f 013c
00000070: d890 64bb cb2b 5e3e 2389 85bd 2014 303d
00000080: dbae eb3d aaf0 763d 3d38 acbd 73af ac3d
00000090: 36bd cbbd 55a1 bc3d 88f5 33be 5953 9bbd
000000a0: a91a 34be 8c6b 0e3e f2d9 a6bd 0f85 f03c
000000b0: e2a5 91bd 8bf4 0f3e 0a50 c3bd 3bda 133e
000000c0: df68 9abd d0fe b0bd 5eaf b3bd 7af9 233e
000000d0: 18cc adbc 1667 3cbe f73d 92bd 53f5 cc3c
000000e0: 746c 7bbe d734 12bd 2d64 093e 227c 28be
000000f0: 20b5 53be 8fd8 73be 833d 81bc d4e6 d53d
0.044996347 -0.007972882 -0.1806612 0.05234125 -0.15517148 -0.012999782 -0.031731278 0.041549604
-0.038961634 -0.05680394 0.11870282 0.036144786 -0.10379373 -0.15717223 0.27834132 -0.36514688
-0.050375536 -0.041322924 0.15942192 -0.15871033 -0.01996363 0.12027612 0.23753305 -0.1537585
-0.05847909 0.0654687 -0.02854634 0.007892565 -0.0034876373 0.21696393 -0.065202974 0.042987943
0.115079604 0.06028811 -0.08409164 0.08431902 -0.099481985 0.09210459 -0.17574131 -0.07584257
-0.17588295 0.13908213 -0.081470385 0.029360322 -0.07111718 0.1405813 -0.095367506 0.14438717
-0.07539534 -0.086423516 -0.08773683 0.16013137 -0.021215484 -0.18398699 -0.07140725 0.025019323
-0.2455309 -0.035694923 0.1341712 -0.16453603 -0.20674562 -0.2381308 -0.015776401 0.104444176

6.weight f4 [128, 64]
00000000: 7549 c53e a56b be3e cad7 80bd d2a2 0dbc
00000010: 6a94 f13d 98c5 203c cbdc 8bbc a603 04be
00000020: 0bdc a4bd e6be babd a6c6 323e 42fa 82be
00000030: 5930 b9bd f8c6 1f3f 8b3f 4c3d 5f1b 193e
00000040: 7202 ccbd 19d3 c73d c7bb a9bd 0316 0c3e
00000050: 27e2 2b3a 2900 8d3b 71eb b4bd 39fe db3c
00000060: 088c f03d 6334 553c 2642 2a3e a321 6a3e
00000070: af1d 503d 39cc 173b 5478 d83d 72c9 94bd
00000080: 7ea0 a6bc 865e ae3d d8d8 293d 87bf d1bd
00000090: d0a1 c53c b3bc 48be f220 babd f6ab 75bb
000000a0: 566f d2bd 4af1 e6bd 1e2f 97bd 40b9 eb3d
000000b0: 161d edbd 80e8 63bd 4545 81be ffca 2bbe
000000c0: 3f43 f33d d27f 883e 766b 073e db50 f0bd
000000d0: f0c5 d13c 075a 1abd cf75 5ebe c240 763d
000000e0: a9e2 86bf 6e8e df3c b2b8 4ebd 5ac3 97bc
000000f0: 8a8e 8bbe 0578 01be d70e 833d 10c2 593e
00000100: f649 dc3d e0aa bebc 0c98 a23d 1839 b9bd
00000110: 589c de3c d8ad 3fbd 202d 3d3d 7da5 5cbd
00000120: 0108 4a3d f834 e9bc bf4f 263c 1c01 f6bd
00000130: caaa ed3d b6b7 de3d cb22 833d c026 973c
00000140: eaff 973d 01cb a4bd 2d36 cebd e6e0 da3d
00000150: 329e 8d3b 9f08 a63d 44c4 a8bd 3ea3 05be
00000160: 6c36 c8bd aeb9 acbd 09f3 0fbd 8332 49bd
00000170: 80ff 84bd 4b66 d3bb c359 dbbd db77 26bc
00000180: 5381 ff3c 6104 aebd 8953 d8bd 9889 05be
00000190: a039 0f3d 85c4 993d 1a6e febd 8803 70bd
000001a0: 8c8d ad3d 3c35 b5bd c0c0 363d b8b1 f8bd
000001b0: a050 efbd 05a0 fabd deb3 c2bd 3a5f a8bd
000001c0: e76b f1bd 471e 0ebd e6de bf3d ea7a 0c3d
000001d0: 7ac8 cfbd 60d6 ad3b de23 d8bd a85b 493d
000001e0: b8db 8abd 3a1e d5bd 2775 fabd 2ce9 77bd
000001f0: 4051 59bd 2864 bebc f7b2 143d 7478 f0bd
00000200: c1ba 6d3e 644e c93e 2448 a1bd 4433 203d
00000210: 187f d03c 009c e1bb 937c 133e fb96 8d3d
00000220: ae65 f13c aef5 c23d 2654 3dbd 809d 613d
00000230: 40ed 0b3d c070 363e c606 823e 685f fcbe
00000240: 64e7 b33d 2354 513f 08d4 94be dd89 10bd
00000250: 0703 503e 2842 e9be 02af 2fbc c22a 073e
00000260: ec35 cbbd a8d5 913d 4538 d93c 0237 163e
00000270: 6924 103e 22ed 4a3e 0dd9 8cbe 08c2 4ebe
00000280: 4af1 ca3d e59f 3ebd 1886 283e 2a7e 2e3e
00000290: 5e20 d0bd c445 cebd e074 5a3c 96fa e9bd
000002a0: 0cb6 cc3d af94 acbb a0b3 cd3d 8a44 723e
000002b0: 9852 0fbf aacb 1c3d 6e89 ccbf 74d6 c63c
000002c0: d4bc 95bc ed84 353d 0635 06c0 54a1 ccbd
000002d0: fe11 b4bd 8c0e fe3d 01a3 7cbd 30a6 6a3d
000002e0: 53c4 473f 82ae 393e d146 4bbd a643 243d
000002f0: 0065 e73f 2030 a3bf 03a9 9dbb a133 973f
00000300: 775a 8b3d bac8 8a3d a08d bb3d 80a9 d7ba
00000310: f47d 4e3d a088 bfbb e8d0 97bd 8758 00be
00000320: 4880 8c3d 3a2b c93d 043f 3f3c ba17 9d3d
00000330: 3eab d7bd 7dea debd d2df 2abe 9092 b23c
00000340: 409c c03d 585e 2fbd 566c fcbd b2c1 9abd
00000350: 1226 dcbc 07cb 5e3d 7c17 b5bd ad6f b8bd
00000360: 2ea0 e03d ca68 dcbd f9d7 a7bd 2736 25be
00000370: b860 4c3d ad43 283d 7e6d 4bbd 7015 bebc
00000380: aa3d 1bbe 3497 aa3d d3df 573b 212e 5c3d
00000390: 2291 d13d 04a4 263d 66e7 f8bd e85e b03d
000003a0: 6e07 fb3d b201 cb3d b025 ce3d 87f5 fa3c
000003b0: 8b05 353c 7f92 cdbb 905f 41bd 4268 ad3b
000003c0: 6026 1f3d 5c15 693d 7011 1c3d b468 86bd
000003d0: 5456 07bd dd02 cbbd 8caf 11be 3646 efbd
000003e0: 7462 a63d 36f9 1ebd d496 aabd b49c b4bd
000003f0: e012 d3bd c846 9bbd a6f6 b9bd 403f 7bbc
0.38532606 0.371915 -0.062911585 -0.008644776 0.11795886 0.009812735 -0.017073056 -0.12892017
-0.08049782 -0.09118442 0.17458591 -0.25581557 -0.09042425 0.6241298 0.049865287 0.14951847
-0.09961404 0.097570606 -0.08287769 0.13680272 0.00065568316 0.0043029976 -0.088339694 0.026854621
0.11745459 0.013012978 0.16626796 0.22864394 0.05080956 0.0023162498 0.10569826 -0.07264985
-0.0203402 0.08514123 0.041466564 -0.10241609 0.02412501 -0.19603233 -0.09088315 -0.003748653
-0.10275142 -0.11276491 -0.07382034 0.11509943 -0.11577813 -0.05564165 -0.2524816 -0.16776656
0.118780605 0.2666002 0.13224587 -0.11734172 0.02560708 -0.037683513 -0.21724628 0.06012035
-1.0537921 0.027289595 -0.050469108 -0.018525768 -0.27257186 -0.1264344 0.06399315 0.21265435
0.107562944 -0.023274839 0.07939157 -0.09044093 0.02717416 -0.04679665 0.046185613 -0.05386876
0.04932404 -0.02846764 0.010150849 -0.1201193 0.11604841 0.10874884 0.064031206 0.018451095
0.074218586 -0.080465324 -0.10068927 0.10687427 0.004321837 0.08107113 -0.0824056 -0.13050553
-0.09776005 -0.08433853 -0.035143886 -0.049120437 -0.06494045 -0.0064514033 -0.1071048 -0.010160412
0.031189596 -0.08496929 -0.10562808 -0.13040769 0.034967065 0.07508186 -0.12423344 -0.058597118
0.084742635 -0.08848044 0.044617414 -0.12143272 -0.116853 -0.122375526 -0.09506963 -0.08221288
-0.11788159 -0.034696843 0.093686864 0.034296907 -0.1014566 0.0053050965 -0.10553716 0.049159676
-0.06780189 -0.10406156 -0.12229376 -0.060525104 -0.053056 -0.023241118 0.036303487 -0.117417246
0.23215772 0.3931762 -0.07875088 0.03911139 0.025451228 -0.0068850517 0.1440299 0.06913563
0.02946743 0.09519516 -0.04622283 0.055081844 0.034161806 0.17816448 0.25395793 -0.4929154
0.08784369 0.8176901 -0.29068017 -0.035287727 0.20313655 -0.45558286 -0.010722877 0.13199905
-0.09922394 0.0712083 0.02651609 0.14669421 0.1407639 0.19817021 -0.27509347 -0.20191205
0.099093035 -0.046539206 0.16457403 0.17040315 -0.101624236 -0.100719005 0.013333529 -0.114247486
0.0999566 -0.005266748 0.100440264 0.23658958 -0.55985403 0.038280167 -1.597944 0.024272181
-0.018278517 0.04431622 -2.0969863 -0.099917084 -0.08792494 0.12405118 -0.06167889 0.057287395
0.7803394 0.18132976 -0.049628083 0.040103577 1.8077698 -1.2749062 -0.0048114075 1.1812631
0.06804364 0.06776567 0.09157872 -0.0016453713 0.050413087 -0.0058451444 -0.074128926 -0.1253377
0.06860405 0.09822698 0.011672739 0.07670541 -0.10530709 -0.10884569 -0.16686943 0.021798402
0.09404802 -0.042814583 -0.12325351 -0.07556476 -0.026873622 0.05439284 -0.0884237 -0.090056755
0.10968052 -0.107621744 -0.081954904 -0.16133939 0.049896926 0.041080166 -0.049664967 -0.023203582
-0.15160242 0.08329621 0.0032939806 0.05375493 0.1023276 0.04068376 -0.12153511 0.08611852
0.122572765 0.09912433 0.10065782 0.030634655 0.011048685 -0.006273567 -0.047210276 0.0052919695
0.038854957 0.056905136 0.038102567 -0.06562939 -0.033041313 -0.099126555 -0.14227122 -0.116833135
0.08124247 -0.038811885 -0.083295494 -0.08818951 -0.103063345 -0.0758186 -0.090802476 -0.015334904

6.bias f4 [128]
00000000: ef75 573d f56a 863c 8dcd ed3d e331 81bd
00000010: beb5 503e 13d5 25be aea1 cf3d 922f e43d
00000020: 0332 6c3b f361 383e adab 7b3d d690 25bd
00000030: 5e19 0fbe 71a5 173c f0ed ca3c 3b36 d23c
00000040: ba2a bcbd 784f 14bc f46a 1b3d 419e c9bd
00000050: daeb dabd 39f0 893d 729c ddbd fa28 a03d
00000060: 8976 d63c baaf 093d 798a f9bd b748 02be
00000070: 3c82 023e 14cd 4d3d eb0e 88bd aaa0 61bd
00000080: 7bf5 ab3d 32ff 133e 48fb 2bbd 407b cfbd
00000090: 5f36 183c 549f d53d c09b 993b 1040 7abd
000000a0: df1c c03d ac7c 8f3d b4c4 7ebd 0187 80bb
000000b0: ab88 a1bd 24e4 b0bb a64b 7abd a193 0a3e
000000c0: 4d0d 40be 8d34 843d 033b 0a3d e337 ea3d
000000d0: 3c72 1e3e c0e0 0fbe d5f5 0c3d 62a2 d3bc
000000e0: 04fd c4bc fa59 a7bb d85d 46bd 9d2c 2bbc
000000f0: 22f4 13be 7505 b8bc 5289 283e 6662 54bc
00000100: fbc0 ebbc c2cb 023d 795c 26bd ca4b f5b9
00000110: 21d5 38bd 94ba 4bbd 2268 37bd 7cab 2b3d
00000120: 746a fdbd 1063 b03d fe20 aebc 763e a4bd
00000130: f6b7 2e3d e3c1 54bd a0f8 5b3b 069e 93bd
00000140: 4696 cabd 7cb5 273e 085e 39be a46e 933d
00000150: f607 113e 46fe 05be 3044 0f3e bb68 11be
00000160: 8c9b e9bc 4198 bcbd d23a 023e 83d4 ab3d
00000170: 63ca 20bc 6f08 453d 213b cf3d 12cc 0c3d
00000180: 0799 b83d 4590 3dbd 3c85 26bd 2ad2 08be
00000190: cc42 dcbd 0f72 d83d b58d e9bd a1e8 1a3e
000001a0: 04dc a7bd bcd5 adbd 378e 8fbe 282c bebd
000001b0: 20d6 763d 1a55 a83d 76b7 3ebc fa72 4d3c
000001c0: 3ee5 c6bb 5802 073e 16ff 5abd e7cb f83c
000001d0: 199b a73d 234a 153e 65f0 9fbd efa1 293e
000001e0: 7c04 03be bfd7 52bd ad7a 303e 1760 413d
000001f0: f507 d93c 4ccc 75bd c5d5 673c c63f 02be
0.052602705 0.016408423 0.11611471 -0.06308343 0.20381829 -0.16194563 0.1013826 0.11141886
0.0036040551 0.18006115 0.06144302 -0.04042133 -0.1397452 0.009255753 0.02477166 0.025660625
-0.09187837 -0.00905215 0.037943795 -0.09844638 -0.10689516 0.06735272 -0.10820855 0.07820316
0.026179569 0.03361485 -0.12184615 -0.12723051 0.12744993 0.050244406 -0.066434704 -0.05508486
0.08396431 0.14452818 -0.041987687 -0.1013093 0.009290307 0.1043078 0.0046877563 -0.06109625
0.09380507 0.07006201 -0.06219931 -0.0039223437 -0.078873955 -0.00539829 -0.0611073 0.13532878
-0.18755074 0.06455336 0.033747684 0.11436441 0.15473264 -0.14050579 0.03441413 -0.025834266
-0.024046429 -0.0051071616 -0.04842934 -0.010447648 -0.14448598 -0.02246354 0.16458634 -0.012962913
-0.028778544 0.0319326 -0.040615533 -0.0004678651 -0.04512513 -0.04973848 -0.044777043 0.041911587
-0.1237382 0.08612645 -0.021255966 -0.08019726 0.042655908 -0.051942717 0.003356494 -0.07207875
-0.09891944 0.16377825 -0.18102276 0.071988374 0.14163193 -0.13085279 0.13990855 -0.14200108
-0.028516553 -0.09208728 0.1271775 0.08390143 -0.009813878 0.048103746 0.101187 0.034374304
0.09013563 -0.046280164 -0.040654406 -0.13361421 -0.10754928 0.1056863 -0.114039816 0.15127803
-0.081962615 -0.08488032 -0.2803819 -0.09285766 0.0602628 0.08219357 -0.01164042 0.01253962
-0.0060698083 0.13184488 -0.053465925 0.030370666 0.081838794 0.14579062 -0.078095235 0.16565679
-0.1279468 -0.051475283 0.17234297 0.04721078 0.026493052 -0.060009286 0.014150088 -0.1271964

8.weight f4 [64, 128]
00000000: d7f1 03be 0c2b dfbc 4834 cbbc d94a 10bd
00000010: 8ced 433c e8b2 813b 37af 91be 2ebc bf3b
00000020: 28df 8cbc 76e8 043f 028f 503f 06e6 2d3e
00000030: 20b7 66bc 884f f8bd 24e3 1ebd 1d97 7c3e
00000040: 2dfb b93d f288 f1bf 53f5 07be 2fab 813d
00000050: b238 23bd b680 0dbd 350d 123e 7b0b c7bd
00000060: 64c8 c7bd c554 6abe 8c27 fe3b 04ca b33d
00000070: 356a 6cbd 3f16 08bf 963a 53bd 11eb b1bd
00000080: 3bb3 923d d7d3 a2bd be14 0c3b b91d c4bf
00000090: 74d7 8c3d 4838 a9bd 437d a2be f094 7dbd
000000a0: 4388 e93b b162 35bd 703f eb3e d59e 80be
000000b0: ab04 49bd be6a aabe b0fb a4bc 2a0f f2bd
000000c0: 234f da3e 4983 dbbd d041 b43c da38 23bc
000000d0: c977 4abf 6687 d83c 83c2 c03d 0a98 c1be
000000e0: e232 5f3d 5b5c 8fbe 1d61 21be 9f28 9fbd
000000f0: 2890 32c0 0cab 473e e418 303b 29a7 c4bf
00000100: d07a 8d3f 515b 863c afe2 4dc1 357e fcbd
00000110: 2c8f ef3c 5200 6cbd 9a0a f13d 124f 98bf
00000120: 7573 c23d 8c1a 063e 5262 96bd 167c 443d
00000130: 3f6a 01be 4edd 13bf 5a10 a53e 49e3 2fbf
00000140: d038 ea3e 0e0e acbd 870f 49bd aa4e a23c
00000150: f4ba 23bd f959 41bd 7c68 ae3e b1bc 523d
00000160: 289b 923d 80a9 323d 66fa d63d 3618 d63c
00000170: 28e7 7bbe ba3a 8a3e c435 133e 2214 f9be
00000180: 0406 c8bd 6dcc 8e3e f487 153d 95a6 95bc
00000190: 138f f13c a656 d7bd 9d04 38bd ea3c 0e3e
000001a0: 1f63 2f3d 500c fdbd 1136 0040 b948 153d
000001b0: 3f58 7d3d ef5a bb3d b559 08be 488f aa3e
000001c0: ccbe 0a3e 34bb dabc 40fd ccbd 5a60 24be
000001d0: 0ec4 26be 06ca 0cbe 6a03 f6bc 3ae0 303e
000001e0: 89ff 453c b7ee c13d d594 843d f68d 85be
000001f0: 4200 ad3e f36e 78bc b5c1 063c 3c06 823c
00000200: 6193 123e b5e5 5b3d 297d 2a3e ce9c ebbc
00000210: 900f 6e3d 9f7b 0dbe 1a3b 883d cfa7 c43c
00000220: fa4c a73d a5fa 29be 99df 03be 8e38 283e
00000230: e326 aa3d 02b1 afbc dbc8 273d 7128 7a3d
00000240: 443c 433e 9626 4d3e 4004 0a3e c298 5f3d
00000250: 1fd0 30bc 40a6 cfbc 30d5 803a 5d44 02bb
00000260: abbc c53c 0f71 323d 6b9b 20bb a08d c9bc
00000270: 0c63 ba3d c786 993d af46 533d c8e6 c03c
00000280: ae21 c23d 2014 72bb c0a2 1b3d fb77 02bc
00000290: 07ba 4fbd e778 3f3c 9667 5f3d 797f 03bd
000002a0: 5311 34bb e7f4 c4bd 45f7 ca3d 1cb7 9bbb
000002b0: f7d5 bfbd 793a c3be 42f8 8cbd b8e9 8dbd
000002c0: 4a4d d3bd 2f8e c4bd 4e33 8abd bbf5 b53d
000002d0: 682a 273d a34c 0fbb 3170 67bd 4960 293e
000002e0: 2719 3c3d c64c 95be 8ffb 893d 9aee 2d3d
000002f0: 5afb 643d 807f dcbc 88fd 9cbd 3a67 ed3d
00000300: 5537 13bd dd4f 123d e347 ae3d b0e1 043e
00000310: 02b1 e83b 5c90 e83d 02a5 943d 8d09 c43e
00000320: 091d fe3d ac12 f83d c621 473c 4e7c 823d
00000330: 3aaa 983d 2c90 e63d 042b 8f3d 34bc de3d
00000340: 8e8a a13d 428c 8b3d 7eb2 51bc 8c14 d5bd
00000350: b0a6 a83d 7288 f3bd 5b97 18bd 9ada f2bc
00000360: 344c 01bd 6e9c 873d 51e6 2e3d 6320 aa3d
00000370: 6509 9bbc acc8 2d3d 4210 f3be 7bf8 553d
00000380: e4e7 97bc 7be9 a73b 0577 043d 8529 f63c
00000390: 276a c13d a531 773e bf18 4cbd 6568 46be
000003a0: dd65 07bd bc8f 873b c424 e7be 4029 50bc
000003b0: 4ca8 083e 1005 20be 1c30 573d 813c 0f3c
000003c0: 03bc 4d3e dd48 a9bd 6a88 9f3c 57ca 97bc
000003d0: 0816 913e ffce 253e ab2d 8f3d 1e24 da3b
000003e0: 080b a33d 0bf0 003e ff2e 133d d776 a8bd
000003f0: ddba f5bc aa84 e03c 06ca ec3d 4a47 263d
-0.12885223 -0.027242206 -0.024805203 -0.03522763 0.011958491 0.003958095 -0.2845399 0.00585129
-0.017196253 0.5191721 0.8146821 0.16982278 -0.014081746 -0.121245444 -0.038790837 0.2466702
0.09081111 -1.8869917 -0.13277178 0.06331479 -0.03984899 -0.034546576 0.1426285 -0.097189866
-0.09755018 -0.228839 0.007756179 0.08778766 -0.057718474 -0.53158945 -0.051569544 -0.086874135
0.07163092 -0.079505615 0.0021374668 -1.5321571 0.06877032 -0.08262688 -0.31736192 -0.061909616
0.0071268394 -0.044283573 0.45946836 -0.2512118 -0.049076717 -0.33284563 -0.020139545 -0.118192986
0.42638502 -0.107184 0.022004038 -0.009962285 -0.7908903 0.02643175 0.094121 -0.3781131
0.054491885 -0.2800015 -0.15759702 -0.0777142 -2.7900486 0.19498843 0.0026870305 -1.5363513
1.1053104 0.016400965 -12.867843 -0.123287596 0.029243074 -0.057617493 0.117696 -1.189913
0.09494678 0.13096064 -0.07342972 0.0479699 -0.12638186 -0.5775956 0.32239038 -0.68706185
0.4574647 -0.08401118 -0.049087074 0.0198129 -0.039973214 -0.047204945 0.3406409 0.05144948
0.071585 0.04361868 0.104969785 0.026134592 -0.24599898 0.2699793 0.14375979 -0.48648173
-0.097667724 0.2789034 0.036506608 -0.018267909 0.029487168 -0.10514574 -0.044926275 0.13890424
0.04281914 -0.12355864 2.0033 0.036446307 0.061851736 0.091482036 -0.1331547 0.3331244
0.13549346 -0.026700594 -0.10009241 -0.1605238 -0.16285726 -0.13748941 -0.030030925 0.17273036
0.01208485 0.09469359 0.064737 -0.2608487 0.3378926 -0.015163171 0.008224894 0.015872113
0.14314033 0.053685863 0.16649307 -0.028761294 0.05812031 -0.13816689 0.06651898 0.024005799
0.08168979 -0.1659952 -0.12878264 0.16427824 0.08308198 -0.021446709 0.040963035 0.061073724
0.19065958 0.2003425 0.13478184 0.05458904 -0.010791807 -0.025347829 0.000982916 -0.0019877173
0.024137815 0.043564852 -0.0024506699 -0.024603665 0.09100923 0.0749641 0.05158108 0.023547545
0.0947908 -0.0036938265 0.037997007 -0.007963176 -0.05071452 0.01168654 0.054542147 -0.03210399
-0.0027476146 -0.09617024 0.09910444 -0.004752053 -0.093669824 -0.3813055 -0.06883289 -0.06929344
-0.10317476 -0.09597432 -0.06748067 0.0888476 0.040811926 -0.0021865747 -0.05650348 0.16540636
0.045922425 -0.29160136 0.06737434 0.042463876 0.05590377 -0.026916265 -0.07665545 0.115919545
-0.03594144 0.035720695 0.08509805 0.12976718 0.007101179 0.11355659 0.07258035 0.38288537
0.12407882 0.121129364 0.012154048 0.063713655 0.07454343 0.11257967 0.069906265 0.10875741
0.07887755 0.068138614 -0.0127989035 -0.1040431 0.08234918 -0.11891259 -0.03725372 -0.029645253
-0.031566814 0.066216335 0.042700116 0.083069585 -0.018925378 0.042427704 -0.4747334 0.052238923
-0.018543191 0.0051242686 0.03234007 0.030049095 0.09444075 0.24140032 -0.049828287 -0.19375761
-0.03305613 0.0041370075 -0.45145237 -0.012705147 0.1334545 -0.15626931 0.052536115 0.008742453
0.20091252 -0.08265851 0.019474227 -0.0185291 0.2833712 0.16192244 0.06991132 0.0066571375
0.079610884 0.12591569 0.03593349 -0.08225792 -0.02999633 0.02740701 0.115619704 0.04059533

8.bias f4 [64]
00000000: 741b 9b3d 5486 083d 610b 903d caba bcbb
00000010: 5f7e 803a 277f 0c3e eece d03c a9a8 45bd
00000020: cdc7 9abd 33e3 01bc f659 233d 5237 28bd
00000030: 765c 063d 8ba2 3cbd 2f79 0a3e e6d5 abbd
00000040: 1f2b 583c 22e6 3cbd 2050 d2bd ce95 2c3d
00000050: 3d29 e43c df73 6dbd 6b8b ea3d 0c12 213d
00000060: 009d 08bd 1371 cebc 2e77 2a3e f158 813d
00000070: 1c94 62bb 986a 50bc 85c0 1f3d a4cf cabd
00000080: 8444 ec3c 94cc 66bd dbdd d5bd eb28 353e
00000090: e45f 45bc abd5 9d3d f292 7ebd c164 fabd
000000a0: a5fc 86bc 04a6 e53c b5e2 983d 96a2 b5bc
000000b0: 011e 393e 66ea 10b9 e037 66bd 5e3d 0ebd
000000c0: 8cf3 303d 345e dc3c c56a 2cbc eb8a 653d
000000d0: 3050 0ebd dcf2 f63c 9eb3 253e d5c7 7ebd
000000e0: c002 92bc 0daf e03c 3404 e1bd 90c1 93bd
000000f0: c2cd f2bd eb81 903a d79f 38bd 881b 26bb
0.07573596 0.03333123 0.0703342 -0.0057595717 0.0009803287 0.1372038 0.025489297 -0.04825655
-0.0755764 -0.007927704 0.039880715 -0.041068383 0.03280302 -0.04605345 0.1352279 -0.08390407
0.013193875 -0.04611791 -0.10269189 0.042135052 0.027851695 -0.05797183 0.11452373 0.03932385
-0.033352852 -0.025200402 0.16647026 0.06315792 -0.0034573143 -0.012720726 0.03900196 -0.099028856
0.028841265 -0.056347445 -0.10442706 0.1769139 -0.012046788 0.077067696 -0.062151857 -0.122262485
-0.016477892 0.028033264 0.07465116 -0.022172254 0.18077852 -0.0001382023 -0.05620563 -0.034726493
0.043201014 0.026900388 -0.010523503 0.056040686 -0.03474444 0.030145101 0.161818 -0.062202293
-0.017823577 0.02742722 -0.1098713 -0.072146535 -0.118556514 0.0011025047 -0.04507431 -0.0025346

10.weight f4 [1, 64]
00000000: 68c6 2bc0 4111 a33d 9c04 243e 0f40 203e
00000010: bb1d 623d 671c 21bf fd75 6dbd 8abf f13d
00000020: fb3c 82bd 35c8 313e 8817 2f3e 3493 01bf
00000030: c554 043e 64d1 4f3e 7a08 65bf bd67 e43d
00000040: c32f babd 21cf 83bd 1c9d 1cbd 657b 8bbe
00000050: 9868 ebbe 6b1e 7cbd cd90 95bf d0d8 8ebd
00000060: 30a1 a7bd a5a9 d8be d50a b7be 01ab 243e
00000070: 2b8d 8a3e f8ae a0bd 7e4d df3d 4873 ecbd
00000080: 2be8 e9be b2e9 623d 7397 b43d 0cc7 8ebe
00000090: 3db2 0f40 85db fcbf c5dc 8840 a640 a63c
000000a0: b966 f0bf 8aff 353e a78b ef3d 4908 b7be
000000b0: 5705 4fbf 6e0b dc3d 364c 3a3d 190f 58bd
000000c0: 441b 7abf 55a7 a7be 1ab0 ee3d 0e70 523d
000000d0: 8504 c33c 0a9c c83d 8345 c3bf 92c5 ebbd
000000e0: 78ec 003e c15d 5a3d c0a2 66bd 045e 06bb
000000f0: 7f32 3bbd bc78 923d 15ee f43d 9d93 323e
-2.6839848 0.07962275 0.16017383 0.15649436 0.055204134 -0.62933964 -0.05797385 0.11804111
-0.06359287 0.17361529 0.1709882 -0.5061524 0.12922962 0.2029472 -0.8946606 0.11152599
-0.09091141 -0.06435991 -0.03823577 -0.2724258 -0.45978236 -0.061552446 -1.1684815 -0.069749475
-0.08185041 -0.42316929 -0.35750452 0.16080858 0.27060828 -0.07845873 0.10903452 -0.11545426
-0.45684943 0.05539865 0.08817949 -0.27886236 2.2452538 -1.9754492 4.2769494 0.020294499
-1.8781348 0.17773262 0.116965584 -0.3574851 -0.8086752 0.107443675 0.045482837 -0.052748773
-0.97697854 -0.32744852 0.116546825 0.051376395 0.023805866 0.09795387 -1.5255588 -0.11512293
0.12590206 0.053312067 -0.056307554 -0.0020502815 -0.045702454 0.071519345 0.11959473 0.17439122
